…
<span class="line">LSTM_LAYER_NUM     = 2</span><br><span class="line">TITLE_DIM          = 200</span><br><span class="line">SENT_LEN           = 20</span><br><span class="line">LINER_HID_SIZE     = 2000</span><br><span class="line">KERNEL_SIZE        = [1,2,3,4,5]</span><br><span class="line">DILA_TITLE_DIM     = 20</span><br></pre></td></tr></table></figure>
<h2 id="net-structure"><a class="markdownIt-Anchor" href="#net-structure"></a> Net Structure</h2>
<figure class="highlight plaintext"><table><tr><td class="code"><pre><span class="line">TextCNNInc(</span><br><span class="line">  (encoder): Embedding(3394, 512)</span><br><span class="line">  (question_convs): ModuleList(</span><br><span class="line">    (0): Sequential(</span><br><span class="line">      (0): Conv1d(512, 200, kernel_size=(1,), stride=(1,))</span><br><span class="line">      (1): BatchNorm1d(200, eps=1e-05, momentum=0.1, affine=True)</span><br><span class="line">      (2): ReLU(inplace)</span><br><span class="line">      (3): MaxPool1d(kernel_size=20, stride=20, padding=0, dilation=1, ceil_mode=False)</span><br><span class="line">    )</span><br><span class="line">    (1): Sequential(</span><br><span class="line">      (0): Conv1d(512, 200, kernel_size=(3,), stride=(1,))</span><br><span class="line">      (1): BatchNorm1d(200, eps=1e-05, momentum=0.1, affine=True)</span><br><span class="line">      (2): ReLU(inplace)</span><br><span class="line">      (3): MaxPool1d(kernel_size=18, stride=18, padding=0, dilation=1, ceil_mode=False)</span><br><span class="line">    )</span><br><span class="line">    (2): Sequential(</span><br><span class="line">      (0): Conv1d(512, 200, kernel_size=(1,), stride=(1,))</span><br><span class="line">      (1): BatchNorm1d(200, eps=1e-05, momentum=0.1, affine=True)</span><br><span class="line">      (2): ReLU(inplace)</span><br><span class="line">      (3): Conv1d(200, 200, kernel_size=(3,), stride=(1,))</span><br><span class="line">      (4): BatchNorm1d(200, eps=1e-05, momentum=0.1, affine=True)</span><br><span class="line">      (5): ReLU(inplace)</span><br><span class="line">      (6): MaxPool1d(kernel_size=18, stride=18, padding=0, dilation=1, ceil_mode=False)</span><br><span class="line">    )</span><br><span class="line">    (3): Sequential(</span><br><span class="line">      (0): Conv1d(512, 200, kernel_size=(3,), stride=(1,))</span><br><span class="line">      (1): BatchNorm1d(200, eps=1e-05, momentum=0.1, affine=True)</span><br><span class="line">      (2): ReLU(inplace)</span><br><span class="line">      (3): Conv1d(200, 200, kernel_size=(5,), stride=(1,))</span><br><span class="line">      (4): BatchNorm1d(200, eps=1e-05, momentum=0.1, affine=True)</span><br><span class="line">      (5): ReLU(inplace)</span><br><span class="line">      (6): MaxPool1d(kernel_size=14, stride=14, padding=0, dilation=1, ceil_mode=False)</span><br><span class="line">    )</span><br><span class="line">  )</span><br><span class="line">  (fc): Sequential(</span><br><span class="line">    (0): Linear(in_features=800, out_features=2000, bias=True)</span><br><span class="line">    (1): BatchNorm1d(2000, eps=1e-05, momentum=0.1, affine=True)</span><br><span class="line">    (2): ReLU(inplace)</span><br><span class="line">    (3): Dropout(p=0.5)</span><br><span class="line">    (4): Linear(in_features=2000, out_features=2411, bias=True)</span><br><span class="line">  )</span><br><span class="line">)</span><br></pre></td></tr></table></figure>
<p>喵喵喵~</p>
]]></content>
      <tags>
        <tag>python</tag>
        <tag>machine-learning</tag>
      </tags>
  </entry>
  <entry>
    <title>What is a pipeline and baseline in machine learning algorithms?</title>
    <url>/2018/04/07/baseline-pipeline/</url>
…
